step4_tp-classification/best_model.pth (torch, 183526 bytes, 6 tensors)

network.0.weight f4 [256, 46]
0.037308685 0.051884234 -0.120494284 -0.055237275 -0.17171165 0.0010376873 0.038678713 -0.12625025
0.11895762 0.003220246 0.023964299 -0.10941618 -0.11761904 -0.044327382 -0.07082289 0.08827473
-0.043586634 -0.044788595 -0.0034848768 -0.09081118 -0.10766994 -0.09200045 0.08409435 -0.048045523
0.04201271 0.00037464246 -0.09389995 -0.019936394 -0.01331883 0.116660245 0.123567216 -0.119967386
-0.1297463 0.020744935 -0.10870914 -0.071709074 -0.10230725 0.09832293 0.09154733 -0.029744297
-0.045140635 0.10732542 0.13624914 -0.084914334 -0.083709285 -0.04542758 0.07865799 -0.10125894
0.048102994 0.042861328 -0.030858988 -0.04421054 -0.09737768 0.026387528 -0.13442619 -0.10044868
0.10657089 -0.08906 -0.105603784 0.0433654 -0.00812076 0.091200046 -0.06885968 -0.0355936
0.02660823 0.02672754 0.0910326 -0.017623277 -0.10149694 -0.113710135 -0.03935464 -0.11689507
0.112159595 -0.13141093 0.075550005 0.050547697 0.043468457 -0.105976924 -0.14004837 -0.110831596
-0.043192293 0.14360717 -0.062357713 -0.023017405 0.03864395 0.10202572 -0.021942522 -0.023305975
-0.05126941 0.019706482 -0.02064016 -0.07155607 0.015181408 0.02157207 -0.105375886 -0.13700663
-0.012292627 -0.042090494 0.1014178 -0.06405645 -0.09186489 0.04757807 -0.15298462 0.11401335
-0.039463155 0.065783866 0.09165612 -0.043369643 -0.03625332 -0.012773626 -0.107588656 -0.06336978
-0.0044436133 0.083902165 0.07143488 0.05987241 -0.13667546 -0.09317671 -0.038517445 0.06277361
0.05820669 -0.08177685 -0.08235424 -0.10829509 0.13475612 -0.051297154 0.023632245 0.06965245
-0.005010482 0.021582773 0.007512431 -0.06098199 0.09251726 -0.075205036 -0.055559438 -0.058386713
-0.044721927 0.107813135 0.07068444 0.015583874 0.0066278707 0.035673317 0.0049831215 -0.054232243
0.06840167 -0.1358722 0.04241574 -0.015687777 -0.0046919505 -0.10908589 -0.043201625 -0.04334055
0.14605254 -0.009825227 -0.03418948 0.0078328345 -0.031556316 -0.052600842 0.12846425 -0.080999024
-0.033067234 0.03378255 -0.04494737 -0.007860484 0.02306361 0.0579323 0.11223113 0.054584086
0.013415552 0.14980786 0.13331561 -0.033660702 0.13142473 0.16053721 0.03255214 0.0070968317
0.042242628 0.041628752 0.024792088 0.124182284 0.122245 0.03010146 0.036398787 -0.006744319
-0.06434715 -0.10133378 -0.004696191 0.08974112 0.05950885 0.058570907 -0.15596469 0.09994017
0.022072747 0.1409907 -0.09662959 0.09417847 -0.06777855 0.07826438 0.09086059 0.036014207
-0.022631237 -0.0022399195 0.12243799 0.120332964 -0.050677586 0.054631487 0.07133162 -0.026343564
0.0543678 -0.07307818 0.07867327 -0.13455458 0.009591527 0.00448002 -0.112705596 -0.090463094
-0.010148985 -0.043874852 0.055694252 -0.12818155 -0.052697536 0.06973481 -0.12857598 -0.008226218
0.0023852508 -0.06677258 0.034768745 0.023636611 0.023742598 -0.13367704 -0.025951859 -0.12153315
-0.018453836 0.09763695 -0.13672666 -0.118410505 -0.12926254 0.09589386 -0.13199432 0.09858901
0.04921377 -0.105462305 0.050969407 -0.019495025 0.037442982 0.034823857 0.08213021 0.045451585
0.034012344 -0.049170095 -0.08450051 -0.08371032 -0.14020899 -0.08663023 0.00989277 0.12139794
00000000: fed0 183d 9084 543d b5c5 f6bd 7b40 62bd
00000010: 2ed5 2fbe 0203 883a 926d 1e3d bf47 01be
00000020: 0da0 f33d c30a 533b c750 c43c 9715 e0bd
00000030: 40e2 f0bd a190 35bd 970b 91bd 62c9 b43d
00000040: e687 32bd 3f74 37bd 8862 64bb 36fb b9bd
00000050: 0f82 dcbd bb6a bcbd a939 ac3d 62cb 44bd
00000060: 8515 2c3d a96b c439 9e4e c0bd a651 a3bc
00000070: 3937 5abc 91eb ee3d cf10 fd3d 76b1 f5bd
00000080: 37dc 04be 48f1 a93c e6a2 debd 35dc 92bd
00000090: 7786 d1bd 885d c93d 2b7d bb3d 50aa f3bc
000000a0: 63e5 38bd 6ecd db3d e584 0b3e 91e7 adbd
000000b0: c66f abbd 4512 3abd 7117 a13d d960 cfbd
000000c0: a507 453d 5c8f 2f3d fdcb fcbc 1c16 35bd
000000d0: f36d c7bd a82a d83c 05a7 09be 0ab8 cdbd
000000e0: d741 da3d 1765 b6bd cc46 d8bd eb9f 313d
000000f0: f00c 05bc 17c7 ba3d 4e06 8dbd 98ca 11bd
00000100: 81f9 d93c b7f3 da3c 4d6f ba3d b15e 90bc
00000110: a1dd cfbd dce0 e8bd 5532 21bd af66 efbd
00000120: eeb3 e53d 9690 06be f6b9 9a3d 1a0b 4f3d
00000130: fb0b 323d 6e0a d9bd d768 0fbe adfb e2bd
00000140: 67ea 30bd c20d 133e cd6a 7fbd ff8e bcbc
00000150: 1e49 1e3d dcf2 d03d cec0 b3bc 2cec bebc
00000160: dfff 51bd 7d6f a13c 8e15 a9bc fd8b 92bd
00000170: 71bb 783c e9b7 b03c 50cf d7bd 774b 0cbe
00000180: 0467 49bc 1567 2cbd 23b4 cf3d 0730 83bd
00000190: a923 bcbd 39e1 423d 00a8 1cbe d57f e93d
000001a0: 1ea4 21bd b1b9 863d 34b6 bb3d 5ea4 31bd
000001b0: 5c7e 14bd 7848 51bc 7157 dcbd 04c8 81bd
000001c0: bb9b 91bb e6d4 ab3d 734c 923d c63c 753d
000001d0: a7f4 0bbe 6ed3 bebd 78c4 1dbd 738f 803d
000001e0: 236a 6e3d 9f7a a7bd 57a9 a8bd d1c9 ddbd
000001f0: 82fd 093e f71c 52bd 6998 c13c f2a5 8e3d
00000200: f82e a4bb 5bce b03c d72a f63b 40c8 79bd
00000210: b079 bd3d 1905 9abd 4b92 63bd e826 6fbd
00000220: 572e 37bd 22cd dc3d 01c3 903d 8153 7f3c
00000230: 9c2e d93b 2f1e 123d 7449 a33b a122 5ebd
00000240: 2d16 8c3d 1522 0bbe 21bc 2d3d a783 80bc
00000250: efbe 99bb 6c68 dfbd 30f4 30bd dc85 31bd
00000260: cc8e 153e fdf9 20bc 450a 0cbd 4a55 003c
00000270: 3241 01bd fb73 57bd 228c 033e d1e2 a5bd
00000280: 8271 07bd 925f 0a3d bc1a 38bd 42c9 00bc
00000290: e5ef bc3c 6b4a 6d3d 6fd9 e53d 9093 5f3d
000002a0: e7cc 5b3c 3b67 193e e383 083e cedf 09bd
000002b0: 3494 063e de63 243e 6555 053d 8a8c e83b
000002c0: 9b06 2d3d e982 2a3d c718 cb3c 4853 fe3d
000002d0: 965b fa3d 5697 f63c e516 153d 73ff dcbb
000002e0: 70c8 83bd 1688 cfbd 81e2 99bb 31ca b73d
000002f0: 8dbf 733d 0ce8 6f3d 35b5 1fbe 6fad cc3d
00000300: e8d1 b43c de5f 103e bce5 c5bd a4e0 c03d
00000310: 7bcf 8abd 1349 a03d 1e15 ba3d a283 133d
00000320: 2565 b9bc 9dcb 12bb c5c0 fa3d 2171 f63d
00000330: 4d93 4fbd 44c5 5f3d 5016 923d 75ce d7bc
00000340: c5b0 5e3d 03aa 95bd 741f a13d adc8 09be
00000350: c825 1d3c 22cd 923b 31d2 e6bd b744 b9bd
00000360: ee47 26bc 1eb6 33bd a81f 643d 0642 03be
00000370: 5fd9 57bd 20d1 8e3d 6ca9 03be 42c7 06bc
00000380: de51 1c3b 10c0 88bd ac69 0e3d 91a1 c13c
00000390: d67f c23c a2e2 08be fe98 d4bc 5fe6 f8bd
000003a0: 802c 97bc e2f5 c73d 1302 0cbe 3581 f2bd
000003b0: 665d 04be 0064 c43d 8529 07be 09e9 c93d
000003c0: 6194 493d 9ffc d7bd 4cc5 503d 08b4 9fbc
000003d0: d05d 193d 76a3 0e3d e233 a83d 712b 3a3d
000003e0: 8750 0b3d 9566 49bd 9a0e adbd 5170 abbd
000003f0: f292 0fbe 316b b1bd 4915 223c 7c9f f83d

network.0.bias f4 [256]
-0.10475497 0.1350375 0.04517328 -0.09256483 -0.14852868 0.15193783 -0.03373453 0.009497741
0.066068076 0.020551184 -0.07117538 -0.10566626 0.09228922 0.04129277 -0.13484156 -0.057592474
-0.057701502 0.10161976 -0.045303382 -0.038955417 -0.04009854 -0.059511874 -0.044127557 -0.10644392
-0.038738158 -0.009530205 0.054078735 0.08798662 0.029910652 0.07493453 -0.08534242 -0.06401202
-0.00034459634 0.08871566 -0.071307614 -0.049701665 -0.06453133 -0.08171967 0.103950754 0.103259526
-0.10714358 0.0787268 -0.13992797 0.010102125 -0.11851971 -0.034087602 -0.1135822 -0.05562089
0.07607928 0.06596647 -0.009370008 0.13501066 0.033052955 -0.10520253 -0.036078475 -0.06549323
0.05540071 -0.044946358 -0.003027809 -0.061663244 -0.11069654 0.090979286 0.031685695 -0.075587496
-0.046753705 0.11923205 0.1125052 -0.041378867 0.09926788 -0.0017482422 0.016684245 -0.07389385
0.116807014 0.063688114 0.036426295 0.10193485 -0.12963437 0.05917671 0.12359153 0.054370318
0.016100306 -0.08221724 0.07459141 0.11656127 -0.06442576 0.13029419 0.022230135 0.12588166
0.11521023 0.009728804 0.14263238 0.015930304 -0.12693039 -0.0841037 0.09010215 0.10920288
-0.00094161404 -0.11409901 -0.11999885 0.11207621 -0.09155612 0.12192195 0.07051008 -0.11816465
0.11567947 -0.13657649 -0.059098933 0.09537792 -0.09966039 -0.12930356 -0.1367648 0.12177364
0.12373122 -0.003895641 0.029033171 -0.12949942 0.09203481 0.07045318 -0.0003481364 -0.12603034
-0.019629605 0.10875412 -0.02866181 0.11398947 0.10476928 0.12560607 0.09284611 0.048130635
0.026803752 0.13287707 0.026883483 -0.021867527 -0.06268674 -0.09783142 0.09129527 0.044671487
-0.10001554 0.0074919467 0.078042194 0.007140215 0.049210988 0.0026879585 0.075404145 0.102703355
0.07906287 0.057393294 0.12340774 -0.035562083 0.09667771 -0.052004714 -0.031869505 -0.067354634
-0.03238043 0.09817459 0.12870398 -0.044530164 0.07478187 -0.09557372 0.06836847 -0.051626932
-0.090613194 0.10117178 -0.05870959 0.12825699 -0.13028716 0.11642902 0.024073211 0.13020399
-0.105232276 0.09705459 0.010674793 0.0597018 -0.11760503 -0.12576899 -0.10464326 0.091566004
-0.09046924 -0.0011953909 -0.052512523 -0.042578194 0.12801203 -0.040271185 0.14510553 -0.08026668
0.079351716 -0.034062132 -0.03449553 0.08978741 -0.13466525 -0.146229 0.068132125 -0.10384728
-0.121286765 0.044177778 -0.112596676 -0.09987273 -0.021650584 0.039060216 -0.027829308 -0.10478508
0.13491994 0.06345945 0.0056387577 -0.091236345 -0.123329036 -0.008707826 -0.033970486 -0.015772305
0.009558097 0.11001493 0.0049074455 -0.12042171 -0.029184312 0.09661935 0.01978596 0.038319822
-0.019257063 0.045487832 0.09951674 -0.084711164 0.09129734 -0.03649713 0.06895835 -0.0009146464
0.12141372 0.09777239 0.10279027 -0.12991571 -0.14291304 -0.04087193 -0.04205442 0.04886782
-0.069457136 0.06296863 -0.09922326 0.08925007 -0.0676362 -0.11486788 0.035219606 0.062459555
0.042839188 0.10241336 -0.046264436 0.0798469 -0.0019818356 0.047901526 0.02120151 0.009936938
-0.035370123 -0.021962283 -0.037725333 0.051697433 0.09700557 0.06932526 0.16032673 0.04221235
00000000: c689 d6bd 4547 0a3e 9e07 393d a192 bdbd
00000010: e717 18be 9795 1b3e 382d 0abd 6a9c 1b3c
00000020: b34e 873d f55a a83c 66c4 91bd 8d67 d8bd
00000030: 2102 bd3d 9c22 293d e813 0abe 16e6 6bbd
00000040: 6958 6cbd 051e d03d 0a90 39bd b78f 1fbd
00000050: 5e3e 24bd b9c2 73bd 19bf 34bd 45ff d9bd
00000060: e7ab 1ebd 9424 1cbc aa81 5d3d 5432 b43d
00000070: 2f07 f53c 4677 993d 02c8 aebd bc18 83bd
00000080: f0aa b4b9 8eb0 b53d ba09 92bd f993 4bbd
00000090: 0029 84bd a45c a7bd 22e4 d43d bb79 d33d
000000a0: 186e dbbd 843b a13d 4749 0fbe 6283 253c
000000b0: 76ba f2bd 719f 0bbd c99d e8bd bbd2 63bd
000000c0: 74cf 9b3d 6e19 873d a984 19bc 3c40 0a3e
000000d0: 8962 073d 6d74 d7bd 06c7 13bd 5121 86bd
000000e0: dbeb 623d ac19 38bd 356e 46bb 9992 7cbd
000000f0: deb4 e2bd 5953 ba3d dcc8 013d 9ecd 9abd
00000100: d080 3fbd ef2f f43d 2069 e63d e37c 29bd
00000110: f54c cb3d 4625 e5ba 66ad 883c a955 97bd
00000120: 8438 ef3d ea6e 823d bd33 153d 38c3 d03d
00000130: dfbe 04be 4763 723d 8e1d fd3d 69b3 5e3d
00000140: cae4 833c 8361 a8bd 62c3 983d adb7 ee3d
00000150: a7f1 83bd d76b 053e f91b b63c 1fe7 003e
00000160: 57f3 eb3d 9065 1f3c 390e 123e 4580 823c
00000170: 0afa 01be 903e acbd 7a87 b83d c2a5 df3d
00000180: a6d6 76ba beac e9bd f5c1 f5bd 3688 e53d
00000190: c681 bbbd 37b2 f93d 9767 903d 4f00 f2bd
000001a0: 5ce9 ec3d b5da 0bbe b911 72bd 8055 c33d
000001b0: bf1a ccbd 2768 04be 120c 0cbe 7564 f93d
000001c0: cb66 fd3d 034e 7fbb f9d6 ed3c 7f9b 04be
000001d0: bf7c bc3d c249 903d 1486 b6b9 190e 01be
000001e0: 44ce a0bc 7bba de3d 2ccc eabc 5073 e93d
000001f0: 4791 d63d e19e 003e 1a26 be3d a124 453d
00000200: 8b93 db3c ed10 083e c03a dc3c 8723 b3bc
00000210: e861 80bd d75b c8bd 04f9 ba3d 73f9 363d
00000220: f3d4 ccbd 017f f53b 96d4 9f3d 77f8 e93b
00000230: 7691 493d 7628 303b 7d6d 9a3d 2356 d23d
00000240: b7eb a13d 3b15 6b3d 32bd fc3d 8ca9 11bd
00000250: f7fe c53d e502 55bd 9989 02bd 3af1 89bd
00000260: 57a1 04bd c20f c93d faca 033e 4365 36bd
00000270: 3d27 993d 28bc c3bd c504 8c3d c376 53bd
00000280: 6993 b9bd 2633 cf3d 7879 70bd cd55 033e
00000290: ff69 05be 5772 ee3d 2f35 c53c 3254 053e
000002a0: 0584 d7bd 8fc4 c63d 54e5 2e3c e089 743d
000002b0: e8da f0bd 96c9 00be 354f d6bd f586 bb3d
000002c0: f047 b9bd aaae 9cba 5f17 57bd 7966 2ebd
000002d0: 9615 033e 66f3 24bd 8b96 143e db62 a4bd
000002e0: 2783 a23d bc84 0bbd 2f4b 0dbd 76e2 b73d
000002f0: b0e5 09be 0ebd 15be db88 8b3d e2ad d4bd
00000300: 3265 f8bd c2f3 343d 1699 e6bd 138a ccbd
00000310: 915c b1bc 9bfd 1f3d 4afa e3bc 8f99 d6bd
00000320: 7428 0a3e 07f7 813d 54c5 b83b 1fda babd
00000330: ef93 fcbd 45ab 0ebc a324 0bbd ec34 81bc
00000340: 9199 1c3c 824f e13d a3ce a03b a89f f6bd
00000350: f013 efbc 5ee0 c53d 2a16 a23c 3ff5 1c3d
00000360: fdc0 9dbc 7351 3a3d 6fcf cb3d 0c7d adbd
00000370: 1afa ba3d 047e 15bd 093a 8d3d e2c4 6fba
00000380: c2a7 f83d e43c c83d b483 d23d a008 05be
00000390: cc57 12be 5369 27bd 4141 2cbd a029 483d
000003a0: 8b3f 8ebd b2f5 803d 9135 cbbd bec8 b63d
000003b0: d984 8abd da3f ebbd 6f42 103d 97d5 7f3d
000003c0: 2578 2f3d 18be d13d c77f 3dbd c686 a33d
000003d0: afe1 01bb 6434 443d caae ad3c 8ace 223c
000003e0: 43e0 10bd 3fea b3bc e185 1abd b0c0 533d
000003f0: dbaa c63d 67fa 8d3d b12c 243e dbe6 2c3d

network.3.weight f4 [128, 256]
-0.031431824 0.022192009 -8.783473e-05 0.0041198893 0.029466769 -0.0033488653 0.0049807574 0.04186562
-0.051099308 0.057452258 -0.041688997 -0.049273305 -0.062182326 0.05394972 -0.00943875 -0.03015155
0.0350671 0.010744778 -0.06456687 0.004799387 0.05381724 0.019127214 0.03407415 -0.018206855
-0.00539095 -0.021500679 0.043487247 0.041769404 0.030448265 -0.009610107 0.024228621 -0.018198395
0.053239852 -0.007126587 0.05912093 -0.0633187 -0.0541137 0.0019069331 -0.06595421 -0.0017004908
0.056644846 0.060650513 0.018617058 0.040253434 0.00020470738 0.06990278 -0.021017365 -0.020306895
-0.0011394606 -0.04336506 -0.015218854 -0.023343908 -0.049830113 -0.0303641 0.049860295 -0.032162033
-0.0036419248 -0.006709565 -0.0066158148 -0.017693652 -0.053682048 0.009402395 0.04302726 0.019193955
-0.037354976 -0.018547028 -0.0012837405 0.08239272 -0.052137796 -0.08438616 0.06267292 -0.0153206345
0.004562736 -0.048345737 0.033199795 0.0041087 -0.0019722348 -0.03419943 0.032159194 -0.0333639
0.045187432 -0.026509015 0.043573026 0.03510283 0.07424503 -0.0021723856 -0.0479762 0.014739716
-0.028043235 0.0135328695 -0.008239451 -0.056176588 -0.012310789 -0.056646086 0.017858623 0.029102797
-0.016668541 -0.010669369 -0.05312118 0.027794402 -0.05405314 -0.00091111305 0.00042790076 0.023555977
-0.04964762 0.04685317 -0.03440612 0.066591375 -0.019067107 -0.03138059 -0.050235245 -0.0058140424
-0.0019880387 -0.0016634624 -0.03040865 0.03227091 -0.036948446 0.035729967 0.01656363 -0.03400534
-0.056452807 -0.03191706 -0.033040766 0.0021315035 -0.006456419 -0.038109325 0.014811179 -0.006856511
-0.056900173 -0.059861224 0.012630164 0.0038384348 -0.026229171 0.010836543 -0.020525994 0.010161614
0.044669583 -0.0030137908 0.020714406 -0.02178182 0.07045498 0.030737713 -0.027358044 0.016311402
0.024001243 -0.0027798063 -0.04347329 0.015102061 0.04752081 0.0116317915 0.061275452 0.01694982
0.04879737 0.06910952 -0.02297567 -0.026442034 -0.049278166 0.018162979 0.045864206 -0.002882913
-0.05199557 -0.022531344 0.033020776 0.017925728 -0.0512723 0.020167014 0.021158239 -0.0055082673
-0.058332603 0.007109996 -0.042502426 -0.05364445 -0.034222733 -0.02093865 0.0012655562 0.057206564
-0.017690506 0.039402746 -0.029645417 0.03346141 -0.031132886 0.0027589859 0.038816597 0.016346311
0.02096487 0.019096961 -0.05101634 -0.014128879 0.0008251792 0.05577189 -0.012858014 0.049101345
0.0025226772 -0.0024135567 0.0073990077 -0.014127628 0.044618092 0.036376107 -0.068475224 0.03321808
-0.00014887493 -0.05394748 -0.03432782 -0.028974185 0.05225147 -0.047558736 -0.049446102 -0.037426997
0.027612016 -0.07888918 -0.03671968 -0.02044726 -0.024187097 0.025717966 -0.04615764 -0.011963752
0.04747089 0.03610422 -0.03837226 -0.005364687 -0.039663475 -0.023875093 0.006425559 0.054262977
0.035300348 0.009796684 -0.03655296 0.03350195 0.032023463 0.0067439517 -0.017943455 0.013482287
0.04777092 -0.07044899 -0.048506558 0.059534404 0.021896454 -0.04289856 -0.016844783 0.022967864
0.04832088 0.020684784 -0.031012373 0.016430458 -0.064411536 0.0064087133 -0.028884744 0.03761659
0.044809222 -0.003759228 -0.034191024 0.05309678 0.014300187 0.053565033 0.07363702 0.020615315
00000000: a8be 00bd 04cc b53c e933 b8b8 2300 873b
00000010: 4b64 f13c a378 5bbb 9f35 a33b 497b 2b3d
00000020: 824d 51bd 0f53 6b3d 15c2 2abd ced2 49bd
00000030: e5b2 7ebd 62fa 5c3d fda4 1abc 6200 f7bc
00000040: 85a2 0f3d de0a 303c a33b 84bd 2d44 9d3b
00000050: 776f 5c3d adb0 9c3c 5691 0b3d 8b26 95bc
00000060: 91a6 b0bb 3122 b0bc af1f 323d 6516 2b3d
00000070: a46e f93c b673 1dbc 1a7b c63c cd14 95bc
00000080: 0812 5a3d 2586 e9bb ca28 723d 3cad 81bd
00000090: 54a6 5dbd 0ff2 f93a 0013 87bd 01e3 deba
000000a0: 6d04 683d ac6c 783d cd82 983c c9e0 243d
000000b0: b8a6 5639 3029 8f3d 9c2c acbc a55a a6bc
000000c0: f459 95ba 909f 31bd 8058 79bc b93b bfbc
000000d0: a91a 4cbd 22be f8bc 4f3a 4c3d 56bc 03bd
000000e0: 5cad 6ebb e9db dbbb 7ac9 d8bb 47f2 90bc
000000f0: b5e1 5bbd 810c 1a3c 5a3d 303d a43c 9d3c
00000100: 8801 19bd f0ef 97bc 2f43 a8ba 84bd a83d
00000110: 718e 55bd a7d2 acbd a95a 803d 6603 7bbc
00000120: 0183 953b 2e06 46bd 82fc 073d 46a2 863b
00000130: 9c40 01bb b414 0cbd 5cb9 033d 96a8 08bd
00000140: 7516 393d 6f29 d9bc a179 323d fcc7 0f3d
00000150: c70d 983d 955e 0ebb b182 44bd da7e 713c
00000160: edba e5bc f8b8 5d3c c3fe 06bc 6c19 66bd
00000170: 31b3 49bc ba05 68bd 3f4c 923c fd68 ee3c
00000180: 778c 88bc 94ce 2ebc 9895 59bd 16b1 e33c
00000190: d366 5dbd c3d7 6eba de57 e039 77f8 c03c
000001a0: 4e5b 4bbd 1ce9 3f3d 6fed 0cbd 0f61 883d
000001b0: 9f32 9cbc ef88 00bd 79c3 4dbd b983 bebb
000001c0: c149 02bb 8908 daba 901b f9bc 802e 043d
000001d0: 4157 17bd 9659 123d 73b0 873c 2f49 0bbd
000001e0: 0f3b 67bd 77bb 02bd c155 07bd b2b0 0b3b
000001f0: 5e90 d3bb 8618 1cbd 96aa 723c 95ac e0bb
00000200: 2810 69bd 0b31 75bd bfee 4e3c 408e 7b3b
00000210: 8fde d6bc c18b 313c 2126 a8bc e67c 263c
00000220: 74f7 363d 0583 45bb 42b1 a93c ca6f b2bc
00000230: b34a 903d a8cd fb3c fa1d e0bc 7d9f 853c
00000240: 419e c43c 692d 36bb 0c11 32bd a36e 773c
00000250: 2ea5 423d 4593 3e3c f8fb 7a3d 59da 8a3c
00000260: c0df 473d 4b89 8d3d 7937 bcbc f79c d8bc
00000270: e7d7 49bd 87ca 943c 1bdc 3b3d 41ef 3cbb
00000280: 4ff9 54bd a793 b8bc cb40 073d fad8 923c
00000290: e702 52bd 4b35 a53c 0b54 ad3c b27e b4bb
000002a0: 2bee 6ebd f8fa e83b 0617 2ebd 48ba 5bbd
000002b0: 232d 0cbd 8887 abbc 05e1 a53a 6e51 6a3d
000002c0: aeeb 90bc c664 213d f2da f2bc d50e 093d
000002d0: 650a ffbc 1ad0 343b 27fe 1e3d b3e8 853c
000002e0: 85be ab3c 3b71 9c3c 82f6 50bd d07c 67bc
000002f0: d750 583a 1171 643d 6baa 52bc 7e1e 493d
00000300: 8053 253b c32c 1ebb 6073 f23b 9177 67bc
00000310: 76c1 363d 1dff 143d bd3c 8cbd ae0f 083d
00000320: 4f1b 1cb9 08f8 5cbd 549b 0cbd 455b edbc
00000330: a305 563d f3cc 42bd ff87 4abd 0d4d 19bd
00000340: 9832 e23c a790 a1bd 6067 16bd 0381 a7bc
00000350: 0524 c6bc 7cae d23c cb0f 3dbd 9d03 44bc
00000360: d670 423d 05e2 133d 3b2c 1dbd 42ca afbb
00000370: 2b76 22bd b395 c3bc 7f8d d23b db42 5e3d
00000380: 1997 103d 4582 203c 8eb8 15bd 5739 093d
00000390: 092b 033d 5efc dc3b 27fe 92bc cfe4 5c3c
000003a0: 71ab 433d 8f47 90bd d0ae 46bd 59da 733d
000003b0: 3160 b33c 67b6 2fbd 12fe 89bc 1a27 bc3c
000003c0: 1dec 453d 2373 a93c a90d febc 2b99 863c
000003d0: 32ea 83bd 2f00 d23b b39f ecbc da13 1a3d
000003e0: e089 373d 615d 76bb e30b 0cbd 027c 593d
000003f0: 554b 6a3c 0267 5b3d 02cf 963d 73e1 a83c

network.3.bias f4 [128]
-0.041703567 0.047288526 -0.054888472 0.007365737 -0.037394114 -0.011656016 0.0016317227 0.040562242
0.061083227 0.049774125 -0.032768074 -0.010876034 0.0085699195 0.029414466 -0.038054492 0.04705964
0.04041798 0.020724952 0.009094587 0.02569995 -0.0047819656 0.028377187 0.049901664 -0.056198698
-0.043244306 -0.040693305 -0.0034517192 -0.015903363 -0.02000739 0.05154147 0.036409985 0.024438241
0.011377559 -0.059677232 -0.038596954 -0.050680514 -0.04768263 -0.0038696525 -0.012856798 0.022563659
0.008124703 -0.011059218 -0.016231868 0.05358921 0.056270663 -0.009203824 0.058775872 0.006263271
0.021760335 0.056910302 0.008449583 0.00254281 -0.06482898 0.06426171 -0.0525971 0.010486008
0.0650421 0.028358128 0.046361275 0.024865672 0.016613401 -0.032309007 -0.0027938976 -0.048803486
0.051947374 -0.04584995 -0.054013174 0.00032049656 -0.027654696 0.017146569 0.027148306 0.036068387
-0.038546957 0.050527025 0.07156046 -0.015742423 0.008661059 -0.009736929 0.04648478 0.04853995
-0.018031884 0.06401163 0.0050886506 0.0007922075 0.0096504 0.00944066 0.014811458 0.0564878
0.038986206 -0.030754024 -0.007927016 -0.05151021 -0.023887793 0.05657202 0.034975536 0.058483556
-0.030627007 -0.019790048 0.0061457353 -0.051215105 -0.050408114 -0.027454715 -0.028672595 -0.044981815
0.0074223205 -0.020263636 0.011833677 0.020553624 -0.053251207 -0.022500977 -0.008451168 -0.03028542
0.06969564 -0.0056894235 -0.06690695 0.02891289 0.018491048 -0.02264872 0.022576056 -0.013036924
0.019144192 -0.0029553701 -0.01288713 -0.03141751 -0.0042492067 0.03648838 0.053550787 0.06359728
00000000: 5cd1 2abd 9db1 413d bcd2 60bd 485c f13b
00000010: 922a 19bd e0f8 3ebc 87df d53a 9824 263d
00000020: 6832 7a3d f4df 4b3d d137 06bd 6531 32bc
00000030: d968 0c3c 9bf6 f03c 07df 1bbd 9cc1 403d
00000040: 538d 253d 60c7 a93c 7601 153c b488 d23c
00000050: 09b2 9cbb 4677 e83c b065 4c3d 9b30 66bd
00000060: f120 31bd 06ae 26bd 3d36 62bb c547 82bc
00000070: 8ae6 a3bc 261d 533d a322 153d b532 c83c
00000080: f168 3a3c 1d70 74bd d717 1ebd 5f96 4fbd
00000090: dd4e 43bd ff99 7dbb 52a5 52bc 6cd7 b83c
000000a0: 791d 053c b931 35bc b2f8 84bc 5c80 5b3d
000000b0: 117c 663d a3cb 16bc f8be 703d 203c cd3b
000000c0: bb42 b23c c71a 693d 1f70 0a3c 46a5 263b
000000d0: 0ec5 84bd a59b 833d 0f70 57bd 81cd 2b3c
000000e0: cb34 853d 4e4f e83c 52e5 3d3d 18b3 cb3c
000000f0: d418 883c 7356 04bd d319 37bb 2ae6 47bd
00000100: c5c6 543d 28cd 3bbd eb3c 5dbd 5208 a839
00000110: 1a8c e2bc f676 8c3c 2066 de3c 72bc 133d
00000120: 6ae3 1dbd 6df5 4e3d 4a8e 923d 41f6 80bc
00000130: 1de7 0d3c a487 1fbc d366 3e3d d4d1 463d
00000140: 9ab7 93bc 8818 833d b2be a63b 25ac 4f3a
00000150: b61c 1e3c ffac 1a3c c2ab 723c c05f 673d
00000160: 00b0 1f3d ddef fbbc 51e0 01bc 5ffc 52bd
00000170: 55b0 c3bc 10b8 673d 8242 0f3d 748c 6f3d
00000180: 7de5 fabc bd1e a2bc 2a62 c93b eec6 51bd
00000190: bd78 4ebd b6e8 e0bc cae2 eabc da3e 38bd
000001a0: f036 f33b edff a5bc 0ae2 413c 1360 a83c
000001b0: f01d 5abd f853 b8bc c576 0abc 2119 f8bc
000001c0: 96bc 8e3d 586e babb 8306 89bd bada ec3c
000001d0: 8a7a 973c cf89 b9bc 6cf1 b83c d398 55bc
000001e0: 48d4 9c3c e2ae 41bb 8a24 53bc a6af 00bd
000001f0: ee3c 8bbb d774 153d 1258 5b3d 4a3f 823d

network.6.weight f4 [2, 128]
0.04090422 -0.0374182 0.0010644139 0.03266855 0.06027712 -9.263793e-05 0.05846093 0.08395497
0.052481685 -0.070714615 -0.05282123 -0.027023239 0.08894413 -0.06669326 0.08014445 -0.04466336
0.023959087 0.062437873 0.082473315 0.001594556 -0.08698416 0.0010033161 0.08044652 -0.013375491
0.031555146 0.033203408 -0.083178595 0.011550442 -0.04275341 0.09940125 -0.09127835 -0.041727904
0.055699904 -0.007834913 -0.028937487 -0.054071296 -0.043040983 0.01327811 0.04628755 -0.011359728
-0.039499782 0.050866093 -0.035044145 0.08681195 0.010202952 0.0046241838 0.044109885 0.089117795
0.016549826 0.10543391 -0.00977891 -0.045965854 -0.0808361 0.076045185 0.010202526 0.074454635
0.049407844 0.0033790942 0.04745131 0.06753037 -0.031497054 0.004143956 0.08163745 0.015630735
0.08916687 0.08467318 0.0816802 0.09721325 0.012139607 0.058580756 -0.027453374 -0.04613585
-0.03379708 0.029360503 0.056464672 -0.082114056 -0.012101019 -0.06868601 0.0018514048 -0.08088445
0.06872067 0.03662366 -0.061729852 0.07014761 -0.065959 0.08787236 -0.0028102626 0.077763945
-0.01709154 0.05132718 0.06848988 0.10280509 -0.032958582 0.023303917 0.044190194 -0.04210872
-0.0420116 0.010509775 0.053723287 0.03603645 0.06468481 0.04114093 -0.033400368 0.06458543
0.009080226 -0.019099198 -0.052741993 -0.059829343 -0.04977174 0.053888164 -0.06093128 -0.051560853
0.090949506 -0.070757255 -0.0862827 -0.013599505 0.030922359 -0.0652073 -0.018099586 0.03172244
-0.059517246 0.052385833 -0.08446361 0.0979241 -0.108232796 -0.07410835 0.060302522 -0.07898585
-0.022601705 -0.010916945 0.07086701 -0.10049095 0.08108644 0.08831465 -0.042717032 -0.07302849
-0.011471591 0.060709823 0.06737251 0.09614265 0.016814213 -0.03753343 -0.09198443 0.013480308
-0.019821448 -0.025343837 0.014554826 -0.031244997 0.011494549 -0.05763871 -0.08588273 0.047038525
-0.03797813 -0.10027708 0.0071980366 0.05632663 0.07684959 -0.088430755 0.106060185 0.044979177
0.08320061 -0.007312055 0.040671926 0.08602263 -0.0898467 0.0048292316 0.09598014 0.008342387
-0.08618869 -0.046484392 0.09906689 0.0036159575 -0.010327994 0.098352715 0.08930239 -0.005540945
-0.030655432 -0.08055168 0.039418112 -0.031851847 0.054007597 0.0018896095 0.015053684 -0.09875132
-0.053692944 -0.047261573 0.08135862 0.041277334 -0.09091981 0.07017655 0.0146473795 -0.056208696
-0.1068776 0.04926339 0.07934822 0.024512809 0.08598349 -0.022684468 -0.024254672 0.079834454
-0.04543747 -0.076468565 -0.07371861 0.020437581 0.015249433 -0.003555422 0.05250933 0.081344
0.008503293 -0.07915982 0.018310934 -0.046905715 0.048182946 -0.090699054 0.069837846 0.019614687
-0.09621286 -0.07299534 -0.09225508 0.038224094 -0.07243988 -0.018183358 -0.076655924 0.037755944
0.06765959 -0.047333013 0.049654894 -0.043016993 0.011767835 0.007512984 -0.022364719 -0.0042192237
-0.060427204 0.035698198 0.012628664 0.037853166 0.006039683 -0.08473251 -0.00490725 0.103686735
0.03269857 -0.020356266 -0.041518833 -0.09755919 -0.032426022 -0.015074476 -0.068058535 0.084741026
-0.036574956 -0.018033586 -0.033778187 -0.026066788 -0.048170812 -0.010849727 -0.07374292 0.062334687
00000000: 2f8b 273d d443 19bd ce83 8b3a 75cf 053d
00000010: 24e5 763d 9c46 c2b8 ba74 6f3d 95f0 ab3d
00000020: 09f7 563d d3d2 90bd 135b 58bd d75f ddbc
00000030: 5728 b63d 7a96 88bd c622 a43d edf0 36bd
00000040: d945 c43c dbbe 7f3d c5e7 a83d 6c00 d13a
00000050: c024 b2bd b481 833a 25c1 a43d e024 5bbc
00000060: f83f 013d 4c00 083d 8a59 aabd 113e 3d3c
00000070: 331e 2fbd e292 cb3d 25f0 babd e1ea 2abd
00000080: 9525 643d 025e 00bc 4f0e edbc dd79 5dbd
00000090: be4b 30bd 6e8c 593c 0498 3d3d 271e 3abc
000000a0: 86ca 21bd f758 503d 738a 0fbd 77ca b13d
000000b0: 482a 273c 7786 973b 91ac 343d 6483 b63d
000000c0: 8093 873c bced d73d b937 20bc b146 3cbd
000000d0: 668d a5bd 94bd 9b3d 7f28 273c ac7b 983d
000000e0: e15f 4a3d cb73 5d3b 4e5c 423d 5d4d 8a3d
000000f0: 0e03 01bd 06ca 873b 8931 a73d 070c 803c
00000100: 1f9d b63d 2269 ad3d f347 a73d be17 c73d
00000110: 34e5 463c 60f2 6f3d e6e5 e0bc f2f8 3cbd
00000120: cf6e 0abd 7085 f03c 8047 673d 6a2b a8bd
00000130: 5a43 46bc 40ab 8cbd d6aa f23a bfa6 a5bd
00000140: 6cbd 8c3d b102 163d 71d8 7cbd 8da9 8f3d
00000150: 8315 87bd 6df6 b33d 622c 38bb b442 9f3d
00000160: 8f03 8cbc 733c 523d 6c44 8c3d 7a8b d23d
00000170: 94ff 06bd dbe7 be3c c700 353d 317a 2cbd
00000180: 5b14 2cbd 3131 2c3c f30c 5c3d f59a 133d
00000190: 7879 843d 6483 283d d3ce 08bd 5e45 843d
000001a0: 3ac5 143c ec75 9cbc fd07 58bd 9d0f 75bd
000001b0: 74dd 4bbd d6b9 5c3d 1493 79bd 7931 53bd
000001c0: bc43 ba3d 2ee9 90bd fcb4 b0bd 75d0 5ebc
000001d0: e350 fd3c 688b 85bd 9545 94bc 64ef 013d
000001e0: 5bc8 73bd 8792 563d 42fb acbd 6e8c c83d
000001f0: 28a9 ddbd 1ec6 97bd c7ff 763d 55c3 a1bd
00000200: 3627 b9bc fcdc 32bc b922 913d 33ce cdbd
00000210: a610 a63d 50de b43d 0ef8 2ebd f68f 95bd
00000220: 57f3 3bbc ddaa 783d 99fa 893d 70e6 c43d
00000230: f6bd 893c a7bc 19bd 5562 bcbd 83dc 5c3c
00000240: 9760 a2bc e19d cfbc 5d77 6e3c 82f5 ffbc
00000250: a253 3c3c 9116 6cbd 49e3 afbd 78ab 403d
00000260: f58e 1bbd 125e cdbd 82dd eb3b c1b6 663d
00000270: 5163 9d3d 2f1b b5bd 1536 d93d 163c 383d
00000280: 1565 aa3d f799 efbb 9b97 263d a22c b03d
00000290: 8c01 b8bd 883e 9e3b 3c91 c43d 82ae 083c
000002a0: b283 b0bd 6b66 3ebd 95e3 ca3d b3f9 6c3b
000002b0: bf36 29bc 266d c93d 2ce4 b63d d190 b5bb
000002c0: 1a21 fbbc 47f8 a4bd e374 213d 1577 02bd
000002d0: 1237 5d3d c6ac f73a baa3 763c 223e cabd
000002e0: 22ed 5bbd 5a95 41bd 599f a63d 6c12 293d
000002f0: 2a34 babd b9b8 8f3d 90fb 6f3c 173b 66bd
00000300: a5e2 dabd 69c8 493d 5281 a23d 16cf c83c
00000310: 1d18 b03d c7d4 b9bc bcb1 c6bc 3f80 a33d
00000320: a41c 3abd 8d9b 9cbd c8f9 96bd b76c a73c
00000330: c2d8 793c 1502 69bb 0614 573d af97 a63d
00000340: 6551 0b3c 8b1e a2bd d000 963c 3520 40bd
00000350: 7b5b 453d 6dc0 b9bd 2507 8f3d fbae a03c
00000360: 3f0b c5bd 957e 95bd 3bf0 bcbd de90 1c3d
00000370: 5c5b 94bd 44f5 94bc c8fd 9cbd faa5 1a3d
00000380: 1c91 8a3d 43e0 41bd ee62 4b3d 9632 30bd
00000390: e1cd 403c 7a2f f63b 3736 b7bc 6a41 8abb
000003a0: 8482 77bd 4638 123d 75e8 4e3c ec0b 1b3d
000003b0: 88e8 c53b 3d88 adbd ffcc a0bb b659 d43d
000003c0: f0ee 053d 2fc2 a6bc a70f 2abd 1dcd c7bd
000003d0: 26d1 04bd effa 76bc 4662 8bbd b48c ad3d
000003e0: 9fcf 15bd 2cbb 93bc ff5a 0abd 048a d5bc
000003f0: c24e 45bd 0ec3 31bc 8706 97bd a852 7f3d

network.6.bias f4 [2]
-0.07481142 0.019268712
00000000: bb36 99bd 6bd9 9d3c
